pokedex/assets/converted_tflite/pokemon_xyzknn.tflite (tflite, 870184 bytes, 14 tensors)

sequential/dense_1/BiasAdd/ReadVariableOp/resource f4 [5]
000000 5c 15 38 be d8 e7 a2 3d e9 59 ca 3d 45 91 02 be
       -0.17976898 0.07954377 0.0988043 -0.12750728
000010 2f a9 02 3e
       0.12759851

sequential/dense/BiasAdd/ReadVariableOp/resource f4 [128]
000000 b0 bf 51 3d 5f 92 a9 bc a8 b3 7a 3d 15 1c ab 3d
       0.051208198 -0.020699678 0.06120649 0.083549656
000010 d4 cf 52 3d cb 38 be bc ef ee 32 3d dc c8 16 3d
       0.05146773 -0.02322044 0.043684896 0.03681265
000020 fd 67 f9 3c cf 61 a8 3c e6 2b cd 3d 14 9f cc 3d
       0.030445093 0.020554451 0.100181386 0.09991279
000030 02 4f bd bc 3a b0 c0 3b 63 66 23 3d 10 f6 a1 3c
       -0.023108963 0.005880383 0.039892565 0.019770652
000040 da b3 18 3c 74 5e 5f 3c b0 ba 9a 3d 73 58 f5 3b
       0.009320224 0.013633359 0.07555139 0.0074873506
000050 83 e0 5a 3c cb 18 5b 3d d1 8a e7 3d 46 a3 87 3c
       0.013359192 0.05349044 0.11305774 0.016557347
000060 af 69 c4 3d 61 a2 1f 3d 0a 53 9d 3d 57 cc 2c 3d
       0.0959047 0.038973216 0.07681854 0.04218706
000070 84 83 c1 3d 3f 8e 13 3d a5 47 92 3c eb 5d b2 3d
       0.09448913 0.03602433 0.017856428 0.0870932
000080 be f2 88 3c 06 98 9a 3d 13 ae 8d 3d 41 97 6c bd
       0.016717311 0.075485274 0.06917968 -0.057761434
000090 8e 55 96 bc 47 9f fd bc 81 0d a8 3c 1f e0 45 3d
       -0.018351343 -0.030959738 0.020514252 0.04830944
0000a0 40 d8 d1 3d fe 59 d3 ba 04 d3 a4 3d 0e d8 39 3d
       0.102463245 -0.0016124842 0.080480605 0.04537206
0000b0 a2 69 8a 3b 92 c6 a5 3b e5 a5 e2 3d 2f 99 e4 3d
       0.004224018 0.005059072 0.11066798 0.1116203
0000c0 3d 12 4a bd 68 11 8f 3c c0 cb b7 b6 fc 80 82 3d
       -0.0493338 0.017464355 -5.4775446e-06 0.06372258
0000d0 5e 53 bf bb b8 de 85 bc eb 5d 08 bc e1 8c 15 3e
       -0.0058387956 -0.016341552 -0.008323173 0.14604522
0000e0 cb 3f 59 3d aa cb 7d bc c5 24 ad 3c e2 de 42 3d
       0.053039353 -0.015490452 0.021135697 0.04757584
0000f0 bc 62 82 3d 6c 49 f8 3d 05 f6 69 3d 6f b4 c9 3c
       0.06366488 0.12123379 0.057119388 0.02462217
000100 28 c8 7f 3d 62 33 98 3d b7 83 ed 3d 39 56 b5 3d
       0.062446743 0.074316755 0.11597388 0.08854336
000110 30 58 19 3d 53 11 24 3d a9 b5 33 3d 57 52 9e 3d
       0.037437618 0.040055584 0.043874417 0.07730549
000120 87 84 80 3d f9 18 6c 3c 1f 52 00 3e 4c 0b 52 bd
       0.062752776 0.014410251 0.12531327 -0.051280305
000130 2b b6 1a 3d 24 33 07 3b 91 7a 88 3d b6 8f 46 bc
       0.037771385 0.0020629847 0.06664003 -0.012119224
000140 6c 07 27 3d ba ab 60 3d 44 79 78 3d 14 86 98 3d
       0.040778562 0.05485127 0.060662523 0.074474484
000150 f2 55 ee 3a 7b f0 47 3d 31 1f 8c 3b 17 42 ec 3c
       0.0018183573 0.048813324 0.0042761792 0.028840108
000160 88 63 96 3d 18 81 39 3d c6 b7 6f bc 01 53 54 3d
       0.07343203 0.04528913 -0.014631217 0.05183697
000170 23 30 e8 3d 03 90 c6 3c 1a a3 2a 3d 21 20 83 3d
       0.11337306 0.024238592 0.041659452 0.064026125
000180 fa 01 d3 3d 80 d0 24 3d a4 63 3c 3d 26 ba 8d bc
       0.103031114 0.040237904 0.045993462 -0.017300677
000190 43 fe 05 bc 22 f8 9e bc 74 30 a4 3d 33 9b 39 3d
       -0.0081782965 -0.019405428 0.08017054 0.045314025
0001a0 22 78 c9 3c 9e e1 de 3c 59 c1 d7 3d ca 00 53 3d
       0.024593417 0.027207192 0.10534925 0.051514424
0001b0 6d a0 4a 3d 03 e5 ea 3c d8 29 4d 3d 0e 0d 14 3d
       0.0494694 0.028673654 0.050088733 0.036145262
0001c0 d5 53 05 3d b1 2f ce 3d 08 1c a1 3d fa bb 74 3b
       0.03255065 0.1006769 0.07866675 0.0037343488
0001d0 a3 6a 65 bd aa 04 4b 3d c5 fb 65 bb d4 df 33 bd
       -0.0560099 0.049564995 -0.0035092693 -0.04391463
0001e0 8a 43 70 3a 65 0e d0 bc 9b 74 72 3d ea 19 0c 3e
       0.00091653375 -0.025397489 0.059193235 0.1368176
0001f0 0b 5b 7a bb ba fd 2d 3d bd 39 e4 3c 31 22 72 bc
       -0.0038201238 0.0424783 0.027859563 -0.01477866

sequential/conv2d_4/BiasAdd/ReadVariableOp/resource f4 [64]
000000 11 6b 38 bb ee 1d 78 bc 92 0d 56 bc de 76 85 3c
       -0.0028139988 -0.015143855 -0.013064759 0.016292032
000010 8a 73 18 3d 77 7b a8 3c dd 5e ff 3b 12 be a7 bc
       0.03721956 0.020566685 0.007793291 -0.020476375
000020 32 92 f1 3c 88 79 49 bc dc ae 49 3d e8 05 0b 3b
       0.029488657 -0.012297042 0.049239025 0.0021213237
000030 23 cb 99 bc fb a0 ca 3c f8 15 0e 3d f2 77 9f bc
       -0.018773621 0.024734965 0.03468892 -0.019466374
000040 00 04 b5 bc 82 56 0b bc 3c 66 e5 3b a0 09 fe bb
       -0.022096634 -0.008504512 0.0070007127 -0.0077526122
000050 c6 43 45 3d 59 a2 23 3c 74 78 29 3d d3 2a 21 bd
       0.048160337 0.009987437 0.04137464 -0.03934748
000060 ee cb eb bb e0 f2 11 bb 54 ea f7 ba 40 b0 5f bc
       -0.007195941 -0.002227001 -0.001891444 -0.013652861
000070 8c 85 11 3c 33 ff a8 bc 05 fb ac bc b4 44 a0 bb
       0.008881938 -0.020629501 -0.02111579 -0.0048910026
000080 76 ae 4a 3c f3 b8 35 3d b1 5d 39 3d 07 a7 71 3d
       0.012370696 0.044365834 0.045255367 0.05899718
000090 ca a4 1c 3d a1 df e4 bc 59 fc ef bc a8 63 4e 3d
       0.038243093 -0.027938666 -0.029295133 0.05038801
0000a0 c8 dd 49 bc 45 df 0f bc 4f a2 a3 3a a0 00 5c bc
       -0.012320943 -0.008781259 0.0012484285 -0.013427883
0000b0 b7 fb bd 3c dd 4d 5f 3c 6f a3 04 3d 35 45 7b bc
       0.023191316 0.013629404 0.032382425 -0.015336324
0000c0 9f e6 e2 3b 15 6e fd 3c 8e c5 a6 3c d4 99 46 bc
       0.006924465 0.03093628 0.020357873 -0.012121636
0000d0 e8 3e 6c bc f4 39 a6 bb 7d 5b 98 3c 9d 86 38 3c
       -0.014419295 -0.0050728265 0.018598313 0.011262563
0000e0 26 20 3e bc 20 cf b2 bc 38 87 09 3d 82 d2 70 bb
       -0.0116043445 -0.02182728 0.03357622 -0.0036746566
0000f0 f0 1b a6 bb 1e 9c a5 3c 2b 15 aa bc fc 1f ce 3c
       -0.0050692484 0.020216044 -0.020762047 0.025161736

sequential/conv2d_3/BiasAdd/ReadVariableOp/resource f4 [64]
000000 df c6 af 3c 27 e6 9b 3c 12 4a b3 bb f5 86 6c 3c
       0.021457134 0.019030644 -0.0054714764 0.014436473
000010 44 90 3d bc 18 50 c7 3d 94 05 36 bd a7 d6 0b 3d
       -0.01157004 0.097320735 -0.044438913 0.034140255
000020 b3 16 79 3c d3 49 b8 bb e7 c9 2d bb 14 e6 8f bc
       0.015203166 -0.005624035 -0.0026518048 -0.017565764
000030 0d af 30 3d 7f da d9 3c 02 81 1d bc 0c 1b 9e 3c
       0.04313569 0.026593445 -0.009613277 0.019300006
000040 ce eb bf bb b9 0b 14 3d 43 ed 2b 3b b2 4e 73 3c
       -0.0058569675 0.036143992 0.0026233948 0.014850305
000050 ae 89 24 3c ca 76 63 3c 8a a4 d8 3d 44 26 89 3d
       0.010042591 0.013883302 0.10578258 0.06696752
000060 3a 09 75 3d fe 25 10 bd 9e f2 24 bb 13 8d 01 3d
       0.059823252 -0.035192482 -0.0025169025 0.03162868
000070 d1 5d 0b bd d8 6f 42 3d a4 8d 5e 3c 03 c8 15 3d
       -0.034025017 0.047469944 0.013583574 0.0365677
000080 56 3d fe 3b 21 a2 8c bc 84 3e 87 bb 14 13 aa 3c
       0.0077587767 -0.017167153 -0.0041273255 0.02076105
000090 ff b6 06 3b 37 22 d2 bc 4f ad ca 3c 92 b6 99 ba
       0.0020555852 -0.02565108 0.024740843 -0.0011727384
0000a0 f3 ea 86 3c b4 ed b3 bb 04 a8 11 bc a4 bf 21 3d
       0.016469454 -0.005490983 -0.008890156 0.039489403
0000b0 89 03 8c 3c c1 bf c5 3c 6e 6b 31 bc fe 0e f2 bc
       0.01709153 0.024139287 -0.010828836 -0.029548164
0000c0 75 48 e6 bb 1c 1f 09 3b a2 40 ad 3c 67 d9 86 b9
       -0.0070276805 0.0020923084 0.021148983 -0.0002572045
0000d0 ac 3c 2e 3d 03 93 25 3b de 71 7c bd 7a 71 2e 3c
       0.04253833 0.0025264628 -0.06163203 0.010647172
0000e0 87 53 c8 bb ff 13 c5 3b cb f2 db 3c 6f 56 43 3c
       -0.006113473 0.0060143466 0.026849171 0.011922463
0000f0 01 d8 94 3c 3a 2f 10 bd 7d 21 f8 bc 5b bb 13 3b
       0.018169405 -0.03520129 -0.030289406 0.0022542092

sequential/conv2d_2/BiasAdd/ReadVariableOp/resource f4 [32]
000000 86 81 52 bd 01 3b 57 bc d8 f3 1f 3d c2 01 0a 3d
       -0.051393054 -0.013136626 0.039050907 0.033693083
000010 64 00 ea bc ac 08 a2 bc ce ca 66 3d b2 0e eb bc
       -0.02856464 -0.019779526 0.056345753 -0.02869353
000020 8b ba 73 bc 27 fa 2f bb e3 c0 64 bd f5 f5 06 3d
       -0.014876018 -0.0026851983 -0.055848014 0.032949407
000030 36 53 a0 3c b4 a4 a0 bd 83 b6 2e 3c 76 19 3b 3d
       0.019570928 -0.07843915 0.010663631 0.04567858
000040 80 9f ce bc 48 a5 58 3d 95 96 e2 bc 6b 53 87 bc
       -0.02522254 0.052892 -0.027659694 -0.016519269
000050 53 df 25 bc a1 e8 ed bc fd 71 34 bd 7c db e4 bc
       -0.010124045 -0.02904159 -0.04405402 -0.02793669
000060 14 2d 5e 3d 9c 6a 91 3c dd d2 26 3d db e2 97 3c
       0.05424221 0.01775103 0.04072844 0.01854079
000070 83 df d7 bc 2f ff 8c bd 65 b4 f7 3b 94 d6 30 bd
       -0.026351696 -0.0688461 0.0075593465 -0.043173388

sequential/conv2d_1/BiasAdd/ReadVariableOp/resource f4 [32]
000000 b8 73 4f 3c c4 73 c1 bb 5c 0b 3c 3c a4 ba b0 b9
       0.012661867 -0.005903693 0.011477318 -0.00033708394
000010 18 bb 20 3d 9a 6e aa bc a6 68 bf bc 08 e4 c2 3c
       0.039240927 -0.020804692 -0.02336533 0.023790374
000020 53 06 4b bd 01 8e 19 3d e9 db 20 bd 8c 20 bd bc
       -0.049566578 0.03748894 -0.039272223 -0.023086809
000030 59 a5 ac bc 7b 01 14 bd 89 58 96 bc 85 32 c5 3c
       -0.021074938 -0.036134224 -0.018352764 0.024071941
000040 84 e7 cf bc 80 62 a3 bc cb 91 2d bd d3 fe 3f bd
       -0.02537895 -0.01994443 -0.042375367 -0.04687388
000050 f8 3e 7a bc bb f0 60 3d 6a de 5f bc 51 48 7e bc
       -0.015273802 0.05491708 -0.0136638675 -0.015520171
000060 29 60 36 3c 70 e4 e2 3c 50 ec c1 bc de a5 e3 bb
       0.011131325 0.027696818 -0.023672253 -0.006947263
000070 21 21 c4 3b 07 a3 cb bc c3 9e 65 3d d4 4a 27 bd
       0.0059853946 -0.024858011 0.05605961 -0.040842846

sequential/conv2d/BiasAdd/ReadVariableOp/resource f4 [32]
000000 f6 58 f4 bc 44 04 16 3d 6c ca dd bc 96 aa 80 3d
       -0.029827576 0.03662516 -0.027074061 0.06282537
000010 eb 0e 6b 3c 73 3d f3 bc b1 d0 fa 3c 35 aa d4 3c
       0.014346818 -0.029692387 0.03061709 0.025960067
000020 96 43 98 bc 35 6e c8 bc 96 f7 e0 bb 75 8f 21 3d
       -0.018586915 -0.024466613 -0.006865452 0.039443452
000030 a6 ab 8c bb de ac c0 3b be c5 af 39 1a ef 15 b9
       -0.004292923 0.0058799824 0.0003352593 -0.0001429882
000040 25 7a 31 3c d9 63 22 bd 6e 17 b3 3d ff ba ad bc
       0.010832344 -0.039646003 0.08744703 -0.02120733
000050 cb 15 3e 3c e5 0b e3 3c 28 81 93 3a f0 ba e8 3d
       0.011601876 0.027715633 0.0011253702 0.113637805
000060 07 d9 21 bc 6b 05 c8 bb 43 ee 98 bb d8 5b 98 bd
       -0.0098784035 -0.0061041615 -0.004667075 -0.07439393
000070 e1 1c 98 bb 37 e3 d7 bc d1 db 19 3d 03 4d 35 3d
       -0.0046421145 -0.026353462 0.03756315 0.044262897

sequential/dense/MatMul f4 [128, 64]
000000 38 b7 df bd 1e 6e f6 bc a6 3e 96 bd 38 10 03 be
       -0.10923618 -0.030081805 -0.07336168 -0.12799156
000010 5b a1 ea bd 6a ed 46 be 04 98 c0 bd a6 e6 c2 bd
       -0.11456557 -0.19426504 -0.09403995 -0.09516649
000020 ef 18 29 3d ce d4 19 3e 72 f3 85 3c d2 cf f7 3d
       0.041283544 0.15022585 0.016351435 0.121001855
000030 2c a0 1b bd 3d ed 99 bd 40 45 15 bd 03 e6 58 bd
       -0.03799455 -0.07515953 -0.036442995 -0.05295373
000040 83 4d d6 3d 97 6d 9e bc 78 7d 83 bd e8 37 83 3d
       0.10464003 -0.019339366 -0.06420416 0.06407148
000050 18 92 ff bb 00 ea a9 3d f9 8b df bd a1 55 07 3e
       -0.007799398 0.08296585 -0.109153695 0.13216259
000060 52 91 01 be cb b7 06 3e b3 16 c3 3d 19 3c 32 be
       -0.12653092 0.13156049 0.09525814 -0.17405738
000070 a5 54 2a bd 39 cb c6 3c 98 53 14 3e 7e 4a ab 3d
       -0.04158463 0.024266826 0.14485013 0.08363818
000080 cc bf f8 3c 9a 53 93 bd 9c 39 81 be a9 6a 25 be
       0.030364893 -0.0719368 -0.25239265 -0.16153969
000090 28 14 2d be d3 b3 c1 bc c8 d8 ae 3c 7a 80 80 3d
       -0.1690222 -0.023645317 0.021343604 0.06274505
0000a0 63 58 a2 bc 7c 9c 53 3e 1a b5 67 be b9 4f 1d bd
       -0.019817537 0.20665163 -0.22627679 -0.038406108
0000b0 bc 0a 4e be 31 32 43 be e3 4b f6 ba 9e 84 34 bd
       -0.20121282 -0.19062115 -0.0018790927 -0.044071786
0000c0 f4 6a e6 bc 43 40 fc ba 60 bc 8d bd c6 c6 f4 3d
       -0.028127171 -0.0019245226 -0.06920695 0.119519755
0000d0 ca 22 39 3d 26 b1 07 bd 2c a5 00 be 1d 25 ee bc
       0.045199193 -0.033127926 -0.12563008 -0.029070431
0000e0 73 bf 55 bd 44 7f 98 3d ef 18 47 be 9e 49 3b 3c
       -0.052184533 0.07446149 -0.19443105 0.011431126
0000f0 44 5c 0f be 46 23 69 be 78 1b b0 3d 25 75 2b be
       -0.1400004 -0.22767362 0.08598989 -0.16743906
000100 0e d7 2c be f9 23 34 be d3 dc 1e 3e 8f a2 8f bd
       -0.16878912 -0.17591847 0.15513925 -0.070134275
000110 34 69 1d 3d b4 3c 41 be 3c 29 77 bd 8a a4 fb 3d
       0.038430408 -0.18870813 -0.06034206 0.12287243
000120 16 e9 83 3d ac b0 12 3e 2a 84 27 be 04 9a a8 3d
       0.06440942 0.14325207 -0.1635901 0.08232501
000130 1a 43 43 be 11 6d c5 bb ee 8f 2a be 87 69 a8 bd
       -0.19068566 -0.0060249646 -0.16656467 -0.08223253
000140 2e 14 fd 3c 2a 1c e3 3d 5a ff fc 3d 91 9a be 3d
       0.030893411 0.11089356 0.12353392 0.09306825
000150 0a ed 7e 3d 58 ca a9 3c 4b 35 82 3d c0 6e 44 bc
       0.062237777 0.020726368 0.06357821 -0.0119892955
000160 70 81 c9 3d 25 05 7a 3e 0f 32 6a 3d 09 3c c6 bd
       0.09839141 0.24416025 0.057176646 -0.096794195
000170 e6 0a 3f 3c 1f 08 d0 3d 3b 5c bd bd 50 1b 0c 3e
       0.011660313 0.10157799 -0.09246107 0.13682294
000180 4e da 61 bd 68 c1 4e 3e ae 07 ad bd 00 66 ae 3d
       -0.055139832 0.20190966 -0.084487304 0.08515549
000190 ae ee 51 3d c5 4e 05 3e 7a ef 8e 3d 8f 44 69 3d
       0.051253013 0.1301833 0.0697927 0.05695015
0001a0 fd da 06 bd 85 7b 08 3d 31 fc 26 3e 17 2c a2 3d
       -0.032923687 0.033320922 0.16307141 0.07918566
0001b0 67 3c d5 bd 4b 82 aa 3d 35 53 81 3d 99 7c cc bc
       -0.104119115 0.08325633 0.063146986 -0.024961757
0001c0 73 75 8c 3d c3 c4 9d bd 45 54 05 be b9 7c 1c be
       0.06858339 -0.07703545 -0.13020428 -0.15281953
0001d0 99 e0 4f bb 6d dd 2a be ad a8 23 be ac 6a 80 bd
       -0.0031719564 -0.1668603 -0.15982313 -0.06270346
0001e0 77 73 93 3d 8e ce 2a 3e 3a 4d 45 be 5e 2b 1a 3e
       0.071997575 0.16680357 -0.19267741 0.15055606
0001f0 fb 55 e7 bd a7 55 38 3e 52 be 7d 3d 78 93 16 be
       -0.11295696 0.18001424 0.06194908 -0.14704692
000200 a3 1c d6 3d 6b ea 06 3c cd b2 e5 3d 0b f4 15 bd
       0.10454681 0.008234601 0.11215744 -0.03660969
000210 48 f1 01 bd c0 b0 52 3e 48 81 98 3d 39 20 80 bd
       -0.031724244 0.20575237 0.074465334 -0.06256146
000220 c6 bb d6 3a cd 4d c8 bd 76 08 53 bd f3 f3 fe 3d
       0.0016382865 -0.09780464 -0.05152174 0.12448873
000230 e7 0d 9d bb 3f f9 8a 3d 8a 2a 83 bd 74 16 96 3d
       -0.004792917 0.06785821 -0.06404598 0.07328501
000240 1e 59 db bd 92 3b 19 be a4 b2 e6 bd 9b 19 27 be
       -0.10710357 -0.1496413 -0.11264542 -0.16318361
000250 09 14 07 3e 88 18 8d 3d dc 2a 89 3d c4 86 be bd
       0.13191237 0.068894446 0.06697628 -0.09303048
000260 d1 2e 06 be 62 83 57 be bd 8e 45 3e 33 0a 64 3d
       -0.13103797 -0.21046212 0.19292732 0.05567379
000270 11 e9 f3 bd 05 4c 60 3b 44 65 9b bd 0a b0 4a 3d
       -0.11909688 0.0034224999 -0.07587674 0.04948429
000280 24 11 70 3d a1 09 09 be e1 17 51 bd bd 48 2d be
       0.058610097 -0.1338258 -0.051048163 -0.16922279
000290 db 5f 3c bd 18 c1 2b 3e 7f 08 54 be fd cd 3d be
       -0.045989852 0.16772878 -0.20706366 -0.1853561
0002a0 1c 93 f0 3d d2 d1 93 3c 6e 46 a3 3d f7 23 67 bd
       0.11746809 0.018044386 0.07972418 -0.056430783
0002b0 18 4c fa 3b 50 91 3b bd 50 a0 92 bc 48 a7 eb 3d
       0.0076384656 -0.045792878 -0.017898709 0.11506516
0002c0 c3 d1 6b 3d 90 c0 ee bc c1 12 14 be e3 27 22 3c
       0.05757309 -0.029144555 -0.14460279 0.009897205
0002d0 bf 9d c0 bc 3c c3 3b 3d 4e eb f3 bd 6b 08 db 3c
       -0.02351272 0.045840487 -0.11910115 0.026737412
0002e0 29 a2 e4 3d 63 b7 47 3e 8b fc f2 bd ad 66 84 bc
       0.11163742 0.1950355 -0.11864575 -0.01616224
0002f0 53 22 06 be 43 cf 1d be e3 1b 48 3d 93 5b 03 3e
       -0.13099031 -0.15411095 0.04885472 0.12827902
000300 db 8a f4 bd d7 58 bf bd 9a 47 f6 bd e2 ed 43 bc
       -0.11940547 -0.09343117 -0.12025376 -0.011958571
000310 ed 4a f4 3d 8c ea 8f bd 45 4a a9 bd d2 d9 da bd
       0.119283535 -0.07027158 -0.08266119 -0.10686077
000320 ff d6 fb 3c 99 40 dd bd 43 c4 bd bd ff 35 84 bc
       0.030742167 -0.10803337 -0.092659496 -0.016139029
000330 a2 12 a3 3c ff 7c 04 3e 5a 85 06 be 75 f7 96 bd
       0.019906346 0.12938307 -0.13136807 -0.073714174
000340 24 91 21 3d 59 ea 81 bd 07 73 ab 3d 62 ad ee 3d
       0.039445058 -0.063435264 0.08371549 0.11654164
000350 db 90 53 3d 1c 43 11 3e c2 00 39 3e 7a c7 e5 bd
       0.051651817 0.14185756 0.18066695 -0.11219688
000360 d6 b0 24 3e 96 22 de 3d d1 9b 52 bd 83 27 eb 3d
       0.16083083 0.108464405 -0.05141813 0.11482146
000370 1a d9 97 bd a8 ad d3 bd cf a5 50 be 72 bb 64 bc
       -0.07414456 -0.10335857 -0.20375751 -0.013960706
000380 db b3 12 be 71 81 42 bd 15 55 41 bc bc 18 cd 3d
       -0.14326422 -0.047486726 -0.01180007 0.10014483
000390 d9 f5 b0 bb 6d 13 5e bd a8 a7 c5 3d 64 54 00 3e
       -0.005400401 -0.054217745 0.096511185 0.12532192
0003a0 4f aa f4 bd c4 e4 a4 bd 1c 25 c0 3c e5 cd b3 ba
       -0.11946546 -0.08051446 0.023455195 -0.0013717978
0003b0 a1 83 64 3e 64 f3 ae 3d 8c e7 71 bc a1 a8 4d bd
       0.22315837 0.08542517 -0.014764678 -0.050209645
0003c0 c5 4b 4d bd 7a f2 ad bd 47 de 27 3e ec 0a e0 3d
       -0.050121088 -0.08493514 0.16393386 0.10939583
0003d0 5f 58 ec bd ca a8 1d be 60 10 8a bd ce ad 5b bd
       -0.11540293 -0.15396419 -0.067414045 -0.05363255
0003e0 77 0b dd bd 23 56 72 be dd cc 44 bd e7 78 32 bd
       -0.10793202 -0.23665671 -0.048046935 -0.043572333
0003f0 41 95 be bd 12 f6 17 3c 36 da 88 3a 96 2c 9d 3d
       -0.09305812 0.009274976 0.0010441008 0.0767452

sequential/dense_1/MatMul f4 [5, 128]
000000 ed 20 40 be 88 49 68 bd 68 5a 8e be 97 e2 b2 be
       -0.1876256 -0.05671075 -0.2780335 -0.349385
000010 11 a5 8e be 03 15 11 be 37 74 9a be a9 17 bf 3b
       -0.2786031 -0.14168172 -0.3016679 0.005831678
000020 37 2f 25 be 68 63 51 be e3 81 11 bf a9 23 28 bf
       -0.16131292 -0.20448077 -0.56838816 -0.65679413
000030 15 95 97 bd 99 17 08 be 51 8e ab be 1c b5 d2 bb
       -0.07401482 -0.13290252 -0.33507016 -0.0064302813
000040 95 87 cc bd f6 fa 3a be 4f ef a2 be d3 e1 eb bd
       -0.09986798 -0.18259797 -0.31823203 -0.11517682
000050 08 0d be bd f0 cf ba be c8 61 86 be fd 21 fb bd
       -0.09279829 -0.3648677 -0.26246476 -0.12262342
000060 c9 bf 0a bf 2b bf ee 3a 17 b3 87 be 02 2c 88 be
       -0.5419889 0.0018214931 -0.26503822 -0.26596075
000070 5a e1 ab be 55 3a a4 bd 13 ef 48 be 23 54 97 be
       -0.33570367 -0.080189385 -0.1962245 -0.2955638
000080 ce be 5c be 8f 0d 2e be c1 72 8d be 42 ff ac 3c
       -0.21557161 -0.1699736 -0.27626613 0.02111781
000090 7c c5 26 bc 2e df b0 3c 08 44 8b bd c0 70 55 be
       -0.01017892 0.021590795 -0.06800085 -0.20843792
0000a0 ee 20 a7 be 58 bd 45 be bb 72 e7 bd 31 02 89 be
       -0.3264231 -0.1931051 -0.1130118 -0.26759484
0000b0 24 f5 4b 3a 1e 5c be bb b3 0d ca be 23 8e 8e be
       0.0007780364 -0.005809321 -0.39463577 -0.27842817
0000c0 5d 8c 76 be b2 74 24 be 38 36 8a be a9 cf 8f be
       -0.24076982 -0.1606014 -0.2699449 -0.2808812
0000d0 f1 27 0b be 35 54 89 bd f1 78 d1 bd 9e cd c8 be
       -0.13589455 -0.06705514 -0.10228146 -0.39219373
0000e0 34 0d 6a be cb c2 1d be 81 5c f7 bc f8 f4 19 be
       -0.22856599 -0.15406339 -0.030195476 -0.15034854
0000f0 d4 c2 9a be bd 21 d8 be ab 69 c7 be b1 68 4f be
       -0.30226767 -0.4221324 -0.38947806 -0.2025478
000100 1b 9e b5 be 0e 6b 44 be 37 04 a9 be 83 fd 78 be
       -0.35472187 -0.19181463 -0.33011028 -0.24315457
000110 f2 a8 7e be d0 5a 93 be 31 f4 69 be d3 fe 84 be
       -0.24869135 -0.28780222 -0.22847058 -0.25975665
000120 4f 3e f0 3d cc 20 ab be 99 ed 89 be 7f 76 62 be
       0.117306344 -0.3342346 -0.26939085 -0.22115515
000130 ba 0e 3a be 47 79 ad bd ae 88 c5 be c7 54 9e bd
       -0.1816968 -0.084703974 -0.3858084 -0.07731014
000140 c8 54 12 be d5 49 ab bd 90 c9 a1 be 34 e9 e3 be
       -0.14290154 -0.08363692 -0.31599092 -0.44513857
000150 a0 91 03 be 7f cf 60 be 4a c0 8f 3b 92 b7 8a be
       -0.1284852 -0.21954153 0.0043869363 -0.27093178
000160 42 1a 0d bf b6 cd db bd 6c 0f a3 3d 79 89 30 be
       -0.5511819 -0.107325956 0.07961926 -0.17239942
000170 45 66 ac be 32 5d 92 be a1 ce 50 be 4e 1c 8f be
       -0.33671775 -0.28586727 -0.20391323 -0.27951282
000180 6e 53 61 be e8 66 c8 be 0c 24 77 be 70 3c 1c bd
       -0.22004482 -0.3914101 -0.24134845 -0.038143575
000190 e5 f0 08 bc 14 0b 6a 3d a7 ae ae be a0 95 9b be
       -0.008358215 0.05713947 -0.34117624 -0.30387592
0001a0 22 3c 24 be 66 cd 98 be d1 e6 dd be 60 57 9f be
       -0.16038564 -0.29844207 -0.4334016 -0.3112135
0001b0 e7 5c bf be 9a 17 62 be 95 41 a1 be 37 b6 78 be
       -0.37375566 -0.22079316 -0.31495348 -0.2428826
0001c0 79 47 a9 bc 37 03 b5 be 03 98 b2 be 17 dd 9f bd
       -0.020663964 -0.35354015 -0.348816 -0.078058414
0001d0 82 1e 4d 3d e0 7e 44 be 71 22 a4 bb c7 ba 06 bd
       0.050077923 -0.19189024 -0.0050089885 -0.03289297
0001e0 b5 50 a1 bd 89 5c 8f be e8 29 dc bd d5 70 f2 be
       -0.07876722 -0.28000286 -0.107501805 -0.4735171
0001f0 65 07 3e be 03 cd 89 3c 02 63 c0 bd 9e 6c 01 be
       -0.18557508 0.01682139 -0.09393884 -0.1263909
000200 21 9e 97 3c 63 6a 9c be a3 2a 85 bc 04 3f 54 3c
       0.018508019 -0.30549917 -0.016255682 0.012954477
000210 44 6d 34 be 8c cb e5 3d 07 fb c1 bd f0 e7 86 be
       -0.17619807 0.11220464 -0.09471708 -0.2634883
000220 65 6a 13 be 81 c6 08 be 64 dd 18 be ab ee 59 bc
       -0.14396055 -0.13356973 -0.14928204 -0.013301532
000230 02 fd 00 be bf d6 95 be 36 19 ce 3d 10 a4 55 be
       -0.12596515 -0.292654 0.10063402 -0.20863366
000240 3c 82 1a be 0c 80 95 be 36 bb 5d 3e 74 ea 00 be
       -0.15088743 -0.29199255 0.21653447 -0.12589437
000250 4d 16 0a be 73 75 2d be 52 83 3a bd ed 09 02 be
       -0.1348507 -0.16939335 -0.045535393 -0.12699099
000260 04 8f db 3b 2e d3 1e 3d 3c 40 7f bb af b4 2b 3e
       0.0067003984 0.038775615 -0.0038948199 0.16768144
000270 da 29 b2 3c 6c 73 db bd d3 71 e5 3d 3b 28 71 3e
       0.021748472 -0.10715374 0.11203351 0.23550503
000280 69 ad 4d be 0a c6 12 3e f3 79 10 bd e3 8b b8 bd
       -0.20085682 0.14333358 -0.03527255 -0.09011056
000290 cf 34 11 3b 03 38 38 be 81 eb 0b 3e e2 a3 0f 3e
       0.002215672 -0.17990117 0.13664056 0.1402736
0002a0 2f 15 37 3e b7 e6 35 be 2e 5f 64 be 2b 88 18 3d
       0.17879175 -0.17763792 -0.22301933 0.037239235
0002b0 0a ff 31 3b 16 0c 85 3d 24 39 07 be 0a 9f 5e 3e
       0.0027160072 0.06496446 -0.13205391 0.21740356
0002c0 43 0e e0 bd af 51 ba bd c2 f9 f2 3d dd 0a 4a 3e
       -0.1094022 -0.09097611 0.11864044 0.19730707
0002d0 f9 ce 10 be a0 a7 44 be 76 96 f1 bd bf a3 ca bd
       -0.14141454 -0.19204569 -0.11796276 -0.09894513
0002e0 77 14 15 3d 78 03 0d be 97 ed 6d be 7a 96 e1 bd
       0.03639647 -0.13770854 -0.23235165 -0.11015029
0002f0 c6 82 cc bd 65 2e 08 3e d1 03 86 be f7 c6 16 be
       -0.099858806 0.13298948 -0.26174787 -0.14724337
000300 1f 10 88 bd 4c c9 27 be 9f 6f 51 bb 07 f3 ca 3c
       -0.066437 -0.16385382 -0.00319574 0.024774088
000310 06 67 2f bd 18 86 4d be dd 65 bf bd 3f 60 30 be
       -0.04282286 -0.20070684 -0.09345601 -0.17224215
000320 47 4c 6a be 51 5f 55 3e 64 dd fd 3d cc 1c 13 be
       -0.2288066 0.20837142 0.123957425 -0.14366454
000330 2c 3e f7 bb 3b eb 27 be f1 84 e7 3d 3c 72 39 bd
       -0.0075452533 -0.16398327 0.113046534 -0.045274958
000340 ba 5a e8 3c 49 a1 2d 3e 3d cc e6 bd ba fc 9f bd
       0.028363574 0.16956057 -0.11269424 -0.07811876
000350 0e 84 ff bd 71 44 6c bb 85 e2 f4 bd 3c 26 59 be
       -0.12476359 -0.0036051536 -0.11957268 -0.21205992
000360 f9 b9 9c 3d a1 9a 2d bd fd 60 41 3e d1 ab 01 be
       0.07652659 -0.042383794 0.18884654 -0.12663199
000370 8e 3d 5c 3d 92 cd fd bd 6a 86 99 3d 97 08 d6 3d
       0.05376964 -0.12392725 0.074963406 0.10450857
000380 8c 4d 4b 3e 75 65 43 be 54 30 1d be e5 a0 c6 3d
       0.198538 -0.19081672 -0.15350467 0.09698657
000390 87 0e 0b 3e b8 8d f9 bc ae 55 74 be b8 78 6f 3e
       0.1357976 -0.030463085 -0.23860809 0.23385894
0003a0 ec 61 ad 3d f2 f9 46 be aa 4c 0d be e9 71 41 be
       0.08465943 -0.19431284 -0.13798776 -0.1889111
0003b0 7a 5d e0 3d e7 4d 77 bd b5 46 5f bd 57 93 aa be
       0.10955329 -0.060377028 -0.05451079 -0.33315536
0003c0 2c 26 73 be a9 8a 02 3e b3 d0 28 3e fb dc 0c be
       -0.2374503 0.12748207 0.16485862 -0.13756172
0003d0 7c bd 27 bd 51 74 14 be cc 95 27 3e 29 4d b8 bd
       -0.04095219 -0.14497496 0.16365737 -0.08999092
0003e0 99 41 65 be 29 1a 34 be 54 19 36 3e a6 75 3a bd
       -0.22388305 -0.17588104 0.177831 -0.045522355
0003f0 5e 90 16 3e fc 6b 5c be 97 17 54 be 26 1b 2e be
       0.14703509 -0.21525568 -0.20712124 -0.17002544

sequential/conv2d/Conv2D f4 [32, 5, 5, 3]
000000 7e 79 ae 3d c7 0e f1 3c ba 88 43 3d 57 4e 4b 3d
       0.085192665 0.029425992 0.047737814 0.049635258
000010 c3 f9 a1 3d 98 27 67 bb f9 ac 89 3d 50 20 6e bd
       0.079089664 -0.0035271402 0.06722445 -0.058136284
000020 c0 c8 9d bc 13 c3 e0 bc c9 9b 8a bd 56 75 76 3d
       -0.019260764 -0.027436769 -0.06767995 0.060170494
000030 f1 44 72 3d 95 a9 6c 3d f7 4d 92 3d b6 6c a9 3d
       0.05914778 0.057778914 0.07143777 0.08272688
000040 ce bf 80 3c 39 af 7e 3d 45 60 87 3d c3 ef 1c 3d
       0.01571646 0.062178824 0.06610159 0.038314592
000050 8f 69 63 bd a6 57 3f bc 0a 09 65 bd 11 fb aa bd
       -0.05552059 -0.011678612 -0.055916823 -0.08348668
000060 0c 5e 28 bd 49 c2 82 3d 06 71 b8 ba ac 7e a3 3c
       -0.041105315 0.06384713 -0.001407177 0.019957863
000070 0f c4 56 bd 32 87 06 bd f3 3e 0f 3d f1 b2 a5 3d
       -0.05243307 -0.032843776 0.034972142 0.08090771
000080 6e ea c5 bd 1c e2 3b 3d 77 da e0 bc 1d 95 b9 bc
       -0.096638545 0.04586993 -0.027447922 -0.02265411
000090 6b b8 e9 3c bf 61 5e 3d a4 de 9f bb f0 f8 d2 3c
       0.02853032 0.054292437 -0.0048788358 0.025753468
0000a0 be d0 80 3d 56 0d ce 3c 51 f3 e5 3b 74 92 ce 3a
       0.062898144 0.025152843 0.007017531 0.0015760199
0000b0 34 b5 2d bd 92 32 65 bd f0 24 b1 bd fc 31 89 bc
       -0.042409137 -0.05595643 -0.086496234 -0.016747467
0000c0 72 e6 c6 bc ce ab 93 bc 7c 96 90 bd f2 33 33 bd
       -0.024279807 -0.018026259 -0.070599526 -0.04375071
0000d0 ef 39 84 bd e7 92 cb bd d7 8a 3a 3d e6 8e 17 bd
       -0.064563625 -0.09940129 0.045542564 -0.037001513
0000e0 ed ea 94 bd ec bc 95 3b 7f a7 51 bb 61 3b 38 bd
       -0.07271371 0.0045696404 -0.0031990705 -0.044978503
0000f0 e4 77 04 bc e3 e4 09 3d 62 dd c7 bd 1a fe 44 3c
       -0.008085225 0.03366555 -0.09759022 0.012023473
000100 e9 6e a2 bc c4 44 09 bd cf bd 8a 3c c7 10 7e 3d
       -0.019828277 -0.033512846 0.01693621 0.06202772
000110 39 5b af bd bd 1e 9a bd 80 dc 2c 3c 34 4e 24 bd
       -0.08562321 -0.07525394 0.010550618 -0.040113643
000120 d7 81 96 3d 62 ba 74 3d 73 26 fd bc 05 9d 8e bd
       0.07348984 0.05974806 -0.030902123 -0.06963543
000130 8e 8a 36 bd c9 c7 b0 3b 28 74 a1 3d 7a 32 4f 3d
       -0.04456573 0.00539491 0.07883483 0.050585248
000140 b8 f1 c4 3d 7d a1 93 3c e4 51 9a bc bc 9b b7 3d
       0.09616417 0.01802134 -0.018837877 0.08965251
000150 e3 74 f2 3c 2f 32 a4 bd 14 ba 5f bd 55 d7 93 bd
       0.029596752 -0.08017384 -0.054620817 -0.07218806
000160 18 57 b4 bd f9 d9 07 bc fa af 5c 3d eb a0 73 bd
       -0.08805674 -0.008291715 0.05387876 -0.059479635
000170 f0 c8 8e 3d 19 ce 61 3c 15 71 8b bd 19 16 32 3d
       0.069719195 0.013782048 -0.06808678 0.043478105
000180 80 f4 60 b9 44 ee d2 bd 1e e7 93 bd 78 96 1f 3d
       -0.00021453388 -0.10299352 -0.072218165 0.038961858
000190 6b c8 b3 bd 04 8a ff 3b 64 94 69 3d 98 ec 81 bd
       -0.08778461 0.007798435 0.057026282 -0.06343955
0001a0 b6 b7 47 3c a1 65 a0 3d 27 1c de bc cd 3c 85 3d
       0.012189796 0.07831884 -0.027113033 0.065057375
0001b0 e9 7a af bc 10 e9 b0 bd 2b fe c6 3d 2c b0 4e bd
       -0.021420913 -0.08638203 0.097164474 -0.05046098
0001c0 73 49 45 3d e4 f2 8c 3c ff 3d c4 bc a2 b4 94 bd
       0.04816575 0.017205663 -0.023955343 -0.072610155
0001d0 47 78 b8 3b 57 71 af 3d 0c 6b c8 bb 6d e8 2c 3d
       0.0056295726 0.0856654 -0.0061162766 0.042213846
0001e0 36 64 f8 bc 1a 2f 8c 3d 2b a0 0a 3d 46 a9 be 3c
       -0.030321222 0.068449214 0.033844154 0.023274075
0001f0 e9 d4 15 3d 2e 39 e9 bc 40 09 19 3b 0e c2 1e 3d
       0.03658 -0.028469648 0.002335146 0.038759284
000200 23 fa 27 3b a6 d3 73 3d 64 3d ba bd 6c f7 9c bc
       0.002563127 0.059528016 -0.090937406 -0.019160949
000210 ef 23 1e 3d 1c 88 d0 bb 3b 36 34 bd 05 17 80 3c
       0.038608488 -0.0063638818 -0.04399703 0.015635977
000220 f5 43 87 3d d3 6d 16 3c 7b 65 5c 3d 59 27 80 bd
       0.06604759 0.009181458 0.053807717 -0.06257505
000230 8f e2 61 bd 33 f9 99 3d 56 e5 ff bc 79 b6 70 bd
       -0.055147704 0.07518234 -0.031237286 -0.05876777
000240 0f 86 84 3c 3c 94 be bd 27 d1 80 bd 82 6f 27 bd
       0.016177205 -0.09305617 -0.06289893 -0.040877827
000250 30 c1 cc 3b 97 91 3d 3d f9 90 d4 ba 12 fe 78 bd
       0.0062486157 0.046281423 -0.0016217522 -0.060789175
000260 0f 84 62 bd 99 06 ad 3b 72 17 30 bd 3c 15 60 3d
       -0.055301722 0.0052803275 -0.04299111 0.05470775
000270 98 7c 74 3c cc 6b 08 bd e7 26 8b 3d a4 03 d4 3a
       0.014922284 -0.033305928 0.067945294 0.0016175401
000280 fd 81 98 bd 13 6d b7 bc 72 60 8c 3d 48 41 c1 bc
       -0.07446668 -0.022390878 0.06854333 -0.023590699
000290 57 4f 63 3d 6b 25 11 bd ed 64 03 bb 40 b5 5a 3d
       0.055495586 -0.035436075 -0.002004917 0.05339551
0002a0 73 6f df bc ee 06 d0 ba 22 c1 38 bc 54 80 32 bd
       -0.027274823 -0.0015871206 -0.011276515 -0.043579414
0002b0 b9 a5 2e bd 5a f6 b0 3d bc 05 76 3b 85 c4 fc 3b
       -0.042638514 0.08640738 0.003754004 0.0077138566
0002c0 1b f3 d1 3c 98 b4 0a bd f8 3c 69 3d ed 17 a1 3d
       0.025628617 -0.033863634 0.05694291 0.078658916
0002d0 a5 c5 98 bc 9b 34 c9 bd 7c b2 a7 3c f4 ed 3a 3c
       -0.018648932 -0.09824487 0.02047085 0.0114092715
0002e0 ea a8 40 bd 63 35 30 3b 5a 35 d6 3b 71 ba 3f bd
       -0.04703609 0.002688729 0.0065371217 -0.046808664
0002f0 d0 00 04 bc 5f 02 8b 3d 7a cc a7 bc b9 eb c4 3d
       -0.008056834 0.067875616 -0.020483244 0.09615273
000300 d7 5c 70 3c f8 69 84 bd 72 56 2a bd 83 ea 9e bc
       0.014670572 -0.064655244 -0.041586347 -0.019398933
000310 c9 68 04 3d 65 15 aa 3d 0c 05 3c 3d af 5d c8 bd
       0.032326493 0.08304862 0.04590325 -0.09783494
000320 aa 19 91 3d 3a 59 fb 3c f7 d6 97 bd 00 ea b3 3d
       0.07084973 0.030682195 -0.07414048 0.08784866
000330 99 b6 28 3d 70 7e a3 bd 47 34 04 3d 81 ea 8a 3c
       0.041189764 -0.079831004 0.032276418 0.016957523
000340 f0 4b fa 3c 00 6a 79 3d b5 88 76 3c 95 cb 11 3d
       0.030553788 0.060892105 0.015047242 0.03559454
000350 9e de 6c bd be a2 13 3d c6 13 69 3d 08 76 75 3d
       -0.05782949 0.036043875 0.056903623 0.059927016
000360 b8 47 9a bd 7b 42 62 bd a8 d4 1b bd c8 a7 4a 3d
       -0.075332105 -0.055239182 -0.0380446 0.049476415
000370 fa b9 b7 bd 43 b7 b9 3d c7 4c 55 bd 46 65 c9 3c
       -0.08971019 0.090681575 -0.052075174 0.024584424
000380 2e d2 08 3d 03 ab 3b 3c 7c ef e5 3d 83 5f 8c bc
       0.033403568 0.011454347 0.11227319 -0.017135387
000390 d4 61 90 3d a2 10 5f bc ab cc 73 bd 95 30 b1 bc
       0.07049909 -0.013614805 -0.05952136 -0.021629611
0003a0 0f 65 78 3c 93 d8 19 3d 12 44 fc bc 4f 27 a7 bd
       0.015160813 0.037560057 -0.030794177 -0.081617944
0003b0 4d 24 87 3d 5e 61 d1 bd a6 d3 9d 3b 37 2b 28 3d
       0.06598721 -0.102236494 0.00481649 0.041056838
0003c0 d0 74 8e 3d 72 11 da 3d f4 68 86 3d 6b fc aa 3d
       0.06955874 0.10647859 0.06562987 0.08348926
0003d0 ef d4 ab 3d f9 67 24 bd d7 98 8e 3d c0 fd 8e bd
       0.08390223 -0.04013822 0.06962746 -0.06981993
0003e0 1c 8d 91 3d d8 24 02 be 2b a7 94 bd 69 d4 65 bd
       0.071069926 -0.12709367 -0.07258447 -0.056110773
0003f0 04 78 4f bd 97 90 03 bd 84 68 9c bd cd 12 06 3e
       -0.050651565 -0.032120313 -0.07637122 0.1309311

sequential/conv2d_1/Conv2D f4 [32, 5, 5, 32]
000000 93 5d 7e bc 88 84 af 3c a0 6e 41 3d 84 9f ca bd
       -0.0155252395 0.0214255 0.04722464 -0.098937064
000010 39 78 69 3d 7d cc a5 3d d8 9c 0e 3d c8 b6 87 bd
       0.05699942 0.08095644 0.034817547 -0.0662666
000020 5a fe f6 bb f8 d0 5b bd 08 62 7b 3d af 4d 96 3d
       -0.0075376453 -0.053666085 0.061372787 0.07339036
000030 4a 41 ab bc 7e 3b 09 3c 04 88 e3 3c 38 f3 c9 3c
       -0.020905156 0.008376 0.027774818 0.024652109
000040 21 31 5e bd 22 4e 4c bd e3 ca 12 3c 3e 31 3d 3d
       -0.05424607 -0.0498792 0.008959505 0.04618954
000050 8a fa 26 bd 6b f3 95 3d 84 fc 3c bd 98 01 7b 3d
       -0.040766276 0.07321819 -0.046139255 0.061280817
000060 79 c5 31 3d b6 c2 16 3d a3 a1 4b bd e8 61 ab bd
       0.043401215 0.036806785 -0.049714696 -0.083682835
000070 5d c4 2f bd c6 12 d8 bc 1e c7 83 bd 12 9c a5 3d
       -0.042911876 -0.02637614 -0.06434463 0.08086409
000080 17 6d f0 bc 8b d0 5d 3d 18 d1 4a bc 71 14 02 be
       -0.029348893 0.05415396 -0.012378953 -0.1270311
000090 fb 8c 88 3d a7 66 67 3d c1 f4 20 3d 52 e8 00 bc
       0.06667515 0.05649438 0.039295916 -0.0078678895
0000a0 63 f2 18 bd df 83 77 bd 0f 85 a3 3b 19 1f 54 3d
       -0.037340533 -0.060428496 0.004990227 0.05178747
0000b0 b2 a4 05 3d 34 fb dd 3b b5 b7 29 3c c5 8a 0b bd
       0.03262777 0.0067743305 0.010358741 -0.034067888
0000c0 0d 91 e1 bc 5e a6 3d bd bc 7d 5e bc 8e b6 80 3c
       -0.027534986 -0.04630124 -0.013579782 0.015712049
0000d0 02 da 7f bc e6 e3 f7 3c e2 f9 86 bd 7b d1 e0 bc
       -0.015615942 0.030260038 -0.0659063 -0.027443638
0000e0 80 c9 08 3c 4d b4 22 bd d0 df f2 ba 4d f7 a4 bd
       0.008348823 -0.03972273 -0.0018529836 -0.080549814
0000f0 45 86 df 39 a0 0d af b9 cf fa 98 bd 9e 14 b3 bc
       0.00042633913 -0.00033388752 -0.07469713 -0.021860417
000100 3d 70 32 3d fa 9c 33 3c 3b 04 f7 3c ae 9d c0 bd
       0.04356407 0.010962719 0.030153384 -0.09405075
000110 17 db 8c 3d 65 75 d3 3d b3 ce 68 bc fb e4 52 3d
       0.068777256 0.103251256 -0.014209437 0.051487904
000120 b9 b2 d7 3c 33 df 49 bd 02 01 f2 3b 9f 61 bc 3d
       0.026330339 -0.049285125 0.007385374 0.09198307
000130 00 ff 58 3d 37 a4 3d bd 3a 57 84 3d de e1 f1 bc
       0.052977562 -0.046299186 0.0646195 -0.029526647
000140 74 e2 39 bd 80 42 0a bd 28 2e 50 bd de d7 5a bb
       -0.04538198 -0.033754826 -0.050825268 -0.0033392827
000150 92 46 17 3c 32 c6 15 bd 4f 9f 38 bd 87 e6 fc bc
       0.009233134 -0.036565967 -0.045073804 -0.030871643
000160 ff b9 72 3d 17 88 5b bd 87 d4 b4 3c 3e 79 22 bc
       0.05925941 -0.053596582 0.022073997 -0.009916602
000170 2f 36 da bc 11 12 18 bd e0 d8 a5 3b 44 e3 f1 3c
       -0.026637165 -0.037126604 0.005061254 0.029527314
000180 a9 b5 47 bd 4f 4e 4d 3d f5 ed 85 bc b8 15 5c bc
       -0.04875723 0.05012351 -0.016348818 -0.0134329125
000190 61 3e 1b 3b e4 2a 7e 3d cb ee c3 3c 73 f4 aa 3b
       0.0023688304 0.062052622 0.023917576 0.005217129
0001a0 58 41 bc 3c 31 df 58 bd a5 be a6 bb b8 1f b0 3d
       0.022980377 -0.052947227 -0.0050886446 0.085998
0001b0 6a ae ff bc 53 c2 2a bd 31 14 10 bc 02 6e ed bc
       -0.031211097 -0.04168923 -0.0087938765 -0.02898312
0001c0 88 3d 0a 3d 4d 7d 85 ba be de f9 bb df 3b 32 ba
       0.033750087 -0.0010184437 -0.00762543 -0.00067990826
0001d0 79 3f 81 bd bd f1 9c 3d 8f 61 a6 3c 64 13 97 3d
       -0.063109346 0.076632954 0.020310191 0.07376745
0001e0 88 82 31 bd 34 ce de bc 0d 12 27 3d 50 76 91 bd
       -0.043337375 -0.027197935 0.0407887 -0.071026444
0001f0 f0 40 57 3c 68 cd 40 bd a0 a6 1c bd ec 44 77 3c
       0.013138041 -0.04707089 -0.038244843 0.015092116
000200 56 86 9e 3c 53 f2 02 bd 3a 90 35 3d 90 d1 3f bc
       0.019351166 -0.03196938 0.044327 -0.011707678
000210 1c c3 47 bd 9c 74 9a 3c 06 42 74 3c 49 76 39 bd
       -0.048770055 0.018854432 0.014908319 -0.04527882
000220 a6 7b 1c 3d c4 60 15 3d bf 8b 8e 3d 3d fc 55 3b
       0.038203858 0.036469236 0.06960248 0.0032651566
000230 b2 be 32 bd 4b 09 02 bc 47 43 8a bb 66 bc 8a bb
       -0.043638892 -0.007936786 -0.004219446 -0.0042338846
000240 79 e4 9d bd dc 32 cd bc 09 90 08 bc 45 0d 2c 3d
       -0.07709593 -0.025048666 -0.008335122 0.042004842
000250 11 d9 6a bd 3a 42 dc bc ad a0 64 bd 9c 97 04 3d
       -0.057335917 -0.026887048 -0.055817295 0.03237115
000260 ec 47 1a 3d 71 c4 71 bc dd a4 80 ba d5 dc 71 bd
       0.037666246 -0.014756308 -0.0009814758 -0.059048492
000270 13 8b bc bc aa b4 d5 bc 02 46 49 bd 6f cf d8 3c
       -0.023015535 -0.026087124 -0.04913903 0.0264661
000280 fe 36 31 bc ed 43 9a 3c 95 65 68 bd 6f 87 c6 bc
       -0.010816334 0.018831218 -0.0567375 -0.024234502
000290 fd fa c3 3b 87 1a 88 3d 2f 71 a5 bd af 50 2a bd
       0.005980848 0.06645685 -0.08078229 -0.041580852
0002a0 d1 6a 4f bd 49 a8 3a bd a0 a3 49 bc fd 60 8c 3d
       -0.050638977 -0.045570645 -0.012307078 0.068544365
0002b0 08 6f 28 3c 92 89 32 3d 04 e0 39 3d 66 3c 17 bd
       0.010280378 0.04358823 0.045379654 -0.036922835
0002c0 59 80 ab bb c1 01 16 bd d9 12 6f bd 56 0c 52 bd
       -0.005233806 -0.036622766 -0.058367584 -0.051281296
0002d0 24 b2 83 3d 6c 29 d8 3c 49 3a 23 3d 6e 99 03 3d
       0.06430462 0.026386939 0.039850507 0.032128744
0002e0 9c 49 ce bc df fa c6 3c c0 56 5c 3b 51 73 2f bd
       -0.025181584 0.024289547 0.0033621043 -0.042834584
0002f0 4a a0 8c bd 26 81 f7 bc 6c cd c8 bd 5d 63 91 bc
       -0.0686651 -0.03021295 -0.09804806 -0.017747575
000300 c7 fa 7d 3c 17 b1 bb bc 53 1c 69 3b fb 2b ee bc
       0.0155016845 -0.022911591 0.003556986 -0.029073706
000310 69 2a 63 3d e1 d7 a1 3d 7c d5 f4 3c 5d d4 9d 3d
       0.055460367 0.07902504 0.029886954 0.07706521
000320 b8 08 91 39 8f a7 2e bd 25 f2 8e bc 7d de 83 3d
       0.0002766305 -0.042640265 -0.017449448 0.06438921
000330 6a fc d3 3c 47 62 40 bd 60 19 fd 3c d3 a9 b6 bc
       0.025877196 -0.046968725 0.030895889 -0.022297775
000340 6f 94 99 3c f1 e2 96 bc ad c0 91 ba ab de 10 3d
       0.018747536 -0.018418761 -0.0011120044 0.035368603
000350 f9 1f 91 3c 1a 22 e2 ba 5c 44 20 bd bf d1 23 bd
       0.017715441 -0.0017252595 -0.039127693 -0.03999495
000360 2c 56 64 3d 3f a9 ae 3b d0 09 c0 3c 55 5b ad bd
       0.055746242 0.0053302343 0.023442179 -0.08464686
000370 06 f5 3e ba 14 65 01 3d a1 ea c5 bd a2 df 87 3b
       -0.0007284436 0.031590536 -0.096638925 0.004146532
000380 b9 7b 0a bd 8b 60 39 3a 79 ca fd 3c 15 1c 55 bd
       -0.033809397 0.0007071576 0.030980336 -0.052028734
000390 65 1b c6 3c f5 75 08 3d c6 70 8a 3c 94 73 85 3b
       0.024182985 0.033315618 0.016899478 0.004072616
0003a0 e0 99 52 bd 53 f7 af bc 54 0d 78 bc 96 65 d3 3d
       -0.051416278 -0.021480238 -0.015139896 0.1032211
0003b0 53 82 cf 3c 8b ea 82 bc 5c b4 bd bc 4e c6 9a 3b
       0.025330698 -0.01598098 -0.023157291 0.004723347
0003c0 9f e4 5b bd 77 7b b0 3c ec 20 2c bd e8 31 d2 3b
       -0.053684827 0.021543248 -0.042023584 0.0064146407
0003d0 01 14 32 bd 63 16 8e 3d be 9b 38 3d 33 e9 96 bc
       -0.04347611 0.06937864 0.045070402 -0.018421745
0003e0 d2 b4 1f bd 10 e2 cb 3b c1 df 43 bd ed 68 1b bd
       -0.038990803 0.006222017 -0.04782081 -0.037941862
0003f0 27 81 7c bd c7 69 83 bd f5 88 46 bd dc cc 8f 3d
       -0.061646607 -0.0641666 -0.048470456 0.07021496

sequential/conv2d_2/Conv2D f4 [32, 5, 5, 32]
000000 b5 47 5d 3c fe c2 31 bc d9 4c 33 bd 8a 3b d2 bb
       0.013505866 -0.010849712 -0.04377446 -0.006415789
000010 a0 a4 2f 3c 43 b7 8d 3d fa 8b 3e 3d 01 87 c9 bc
       0.010720402 0.0691972 0.04652021 -0.024600508
000020 b2 c4 e9 bc eb 76 7b 3d 67 72 4e 3d 57 a8 85 bd
       -0.028536174 0.061392706 0.05040207 -0.06526249
000030 b8 d9 a6 bc 35 22 9a bd 07 85 91 3c ea 36 4e bd
       -0.020367488 -0.07526056 0.017763628 -0.05034534
000040 17 f0 75 3c 61 f0 9a 3c a8 e7 a0 3c 64 1a 91 bd
       0.015010855 0.01891345 0.019641712 -0.07085112
000050 67 74 de bd d7 8d 65 bd 1f 62 6a 3d 3c d8 12 3d
       -0.10862046 -0.056043472 0.05722248 0.03585075
000060 32 df 24 bd e8 fd a4 bd cf 05 19 3d ac a4 38 bc
       -0.040251918 -0.08056241 0.037359055 -0.01126973
000070 3b c5 76 bd 94 76 ca 3c bd 9c 2f bd 5a af 0b 3d
       -0.060246687 0.024714746 -0.042874087 0.034102775
000080 cf 79 67 bd a4 3f 76 bc 17 1f 9c bd 96 56 c4 3d
       -0.05651265 -0.015029822 -0.076231174 0.095868275
000090 a9 92 8f 3d 7a f1 6e bd 42 1e a3 bc d6 69 9a bd
       0.07010395 -0.05833576 -0.019911889 -0.07539718
0000a0 a9 f3 21 3c b2 fe 05 3d 29 46 00 bd fb b9 53 3d
       0.009884753 0.0327136 -0.03131691 0.051691037
0000b0 f0 36 88 bc d3 27 0a 3b c0 a5 97 ba f3 ac b9 bd
       -0.016627759 0.0021080866 -0.0011569783 -0.090661906
0000c0 69 a8 f8 bc 57 b9 29 3d 5c e8 68 bd 67 89 31 bd
       -0.030353742 0.04143652 -0.05686222 -0.043343928
0000d0 60 ba 6a 37 e0 b4 b1 bd 3e 4b 4c bd ab 44 e4 ba
       1.3990881e-05 -0.08677077 -0.049876444 -0.0017415484
0000e0 07 d4 ad 3c 42 6c 00 be 8a 8b 8c bd f5 0d e8 bd
       0.021219267 -0.12541297 -0.068625525 -0.11330787
0000f0 fd 47 5a 3d c9 46 37 3d 94 09 8d bd 50 61 23 3d
       0.05329131 0.04474524 -0.068865925 0.039887726
000100 6b 67 38 bd 1e 05 ea 3c 46 0a 73 bd eb 5e 05 3c
       -0.045020502 0.028566893 -0.05933597 0.008140306
000110 7b 49 5c 3d 2f 0d 8f bd 4d f7 60 bd 72 53 85 bd
       0.053781014 -0.069849364 -0.054923344 -0.065100566
000120 0f 71 13 3d dc 32 74 bd 14 da 56 bd 1c bb 5c bd
       0.035996493 -0.059618816 -0.05245407 -0.05388938
000130 19 be d2 3c 64 95 92 bc 23 8c a5 bd ef 3d 1c bd
       0.025725411 -0.0178935 -0.080833696 -0.038145002
000140 89 58 56 bd 83 a9 0d 3d 6a 4b 90 bd 96 74 10 3d
       -0.052330527 0.034585487 -0.07045634 0.035267435
000150 9f 72 b5 bd 79 00 ea bc d4 98 24 3c a6 26 e3 3c
       -0.08859753 -0.028564679 0.010046203 0.02772839
000160 f7 9a 07 bc 92 c6 49 bc 22 d9 d6 bc a4 67 f6 bd
       -0.008276693 -0.012315409 -0.026226584 -0.12031487
000170 4e 1a 5c 3c 07 6a 02 3d ad 4a 92 bc 71 7c b3 3d
       0.013434006 0.031839397 -0.017857874 0.0876397
000180 34 74 15 3c 85 04 b5 3c 72 d2 6e 3d d3 60 73 bd
       0.009121943 0.022096882 0.058306165 -0.05941851
000190 3a 57 5f bc b2 0d 6e bd aa 8a 25 3d ee 84 11 be
       -0.013631636 -0.05811853 0.040415443 -0.14210865
0001a0 d5 7c 23 ba 80 6a 9d bd 91 c3 63 3c c8 5b d3 bd
       -0.0006236558 -0.07686329 0.013901607 -0.1032024
0001b0 d1 27 c5 bb 60 68 29 bd 14 f3 0a bd 84 7a 3f bd
       -0.0060167094 -0.041359305 -0.033923224 -0.0467477
0001c0 66 d0 3f bd 63 4a 77 bd 0f 04 b5 bd fd 53 a8 bc
       -0.046829604 -0.060373675 -0.08838665 -0.020547861
0001d0 3b 1a 5f bd b9 6a 91 bc ff 17 54 bd 7d ec 4b bd
       -0.054468375 -0.017751085 -0.051780697 -0.04978608
0001e0 03 69 6e 3b 51 40 60 bd 70 57 45 3c 07 11 87 bd
       0.003637851 -0.054748837 0.0120447725 -0.065950446
0001f0 6c ae 26 39 b6 28 82 3d 18 af 9c bd b4 1b 8e bd
       0.00015895971 0.06355421 -0.07650584 -0.06938878
000200 0f 16 88 bb fd 9e 3f 3a b4 09 25 3d ee 98 c8 bd
       -0.00415302 0.0007309763 0.040292457 -0.09794794
000210 cb 50 0d 3d 05 43 0c 3c 63 83 dd bc 38 5c cf bd
       0.03450088 0.008560901 -0.02704019 -0.10125011
000220 50 ca 38 3c f1 d5 98 bd 40 19 29 bc 7e c9 05 be
       0.011278704 -0.07462681 -0.0103209615 -0.13065144
000230 79 af cb 3c 76 7f 13 3d 21 f1 34 3d c0 5c 06 3d
       0.024863945 0.036010228 0.04417527 0.032803297
000240 84 5f 66 bd 23 26 76 bd 76 b1 ad bc 88 02 db bc
       -0.056243435 -0.060094964 -0.021202784 -0.026734605
000250 c3 1c 10 bd 85 28 dd bd 24 1e 3b 3d 7c 90 91 37
       -0.03518368 -0.10798744 0.04568304 1.7352628e-05
000260 6a b9 34 bd 04 e6 14 3d 02 35 97 3c f9 3e 0f be
       -0.044122137 0.036352172 0.018457893 -0.13988866
000270 0b e9 08 bc ac 3f 78 3d 0e 29 2e bd a3 0c 3d bd
       -0.008356343 0.060607597 -0.04251962 -0.04615463
000280 1e 91 b3 3b dd 2e 76 3d 46 97 77 bc 01 1e 2f bd
       0.005479946 0.060103286 -0.01511175 -0.042753223
000290 71 8c 7f 3d 94 62 6f 3d 2e 08 f8 bb b2 ca df bd
       0.062389795 0.05844362 -0.0075693345 -0.10927333
0002a0 4d c9 27 bd 7c 70 c7 3d 75 78 ab 3d 5a 62 79 3d
       -0.04096346 0.097382516 0.08372585 0.06088481
0002b0 33 c3 95 3c 1e f4 8f bc 61 54 96 bc 81 47 c0 bc
       0.018281555 -0.017572459 -0.018350782 -0.023471596
0002c0 bf 48 48 bd 31 22 c9 3c 81 62 39 bc 14 b5 7c bc
       -0.0488975 0.024552437 -0.011314989 -0.015424032
0002d0 0b 36 b6 bc 44 52 0d bd 26 bb 4a 3d 88 57 0a bc
       -0.022242567 -0.034502283 0.049494885 -0.008443721
0002e0 0f 55 a9 bd 9b ea 88 bd 70 e5 49 3c e0 ba cb bd
       -0.08268177 -0.066853724 0.012322769 -0.09947753
0002f0 54 c7 b1 bd 42 ca d0 bc b3 d3 9a bd df 64 a4 bc
       -0.08680597 -0.025487069 -0.0755991 -0.02006763
000300 00 b6 9b 3b d5 7c 98 3c 46 c9 9c bd 1d eb 51 3b
       0.0047519207 0.018614212 -0.07655577 0.0032031008
000310 b7 4b 5f 3d 41 88 9d 3c 6a 2b 69 3c 63 0d b7 bd
       0.054515567 0.01923001 0.014231542 -0.089381
000320 7f c6 e8 bc a1 9f 7d 3c 12 1a 94 3c f5 a1 d0 3d
       -0.028414963 0.015479953 0.018078838 0.10187141
000330 30 19 ab bc da 66 4e bd 10 99 3c bd 8e a0 ed bd
       -0.020886034 -0.050391056 -0.04604441 -0.11602889
000340 bc b0 9d 3c d4 12 16 bc 9b b9 03 3c 9c a7 31 bd
       0.019249313 -0.009159762 0.008039857 -0.043372735
000350 c0 db 9a 3c 6c 21 b1 bc b1 5d 04 bd a5 13 33 bd
       0.018903613 -0.021622382 -0.032315914 -0.043719906
000360 49 8a f9 bc 72 8b 4c bd ab 62 36 3b e5 a5 e0 bd
       -0.030461447 -0.049937673 0.0027829807 -0.10969142
000370 99 15 2e 3d 6d 57 19 3c 3b 75 ce bc a8 d1 84 3d
       0.042501066 0.009359223 -0.025202384 0.06485301
000380 fb cb 8b bd ef e6 e5 3c 83 86 59 3c 34 f5 bd 3d
       -0.068260156 0.02806422 0.013276699 0.092752844
000390 b1 eb a1 3d 6f a6 96 3c fb 4a 23 3d 2e d7 0e be
       0.07906283 0.018389909 0.03986643 -0.13949272
0003a0 c4 f1 a4 3c c6 c7 46 3d b4 95 a4 bd f2 ae 23 bc
       0.020134814 0.048530363 -0.08036366 -0.009990441
0003b0 05 f4 d8 bd a3 44 e2 bc 87 8a 89 bc c8 0d 4b bd
       -0.10593418 -0.02762062 -0.016789688 -0.04957369
0003c0 59 51 c0 bc 3a ad ea bc 2e e2 6b 3c d5 14 4c bc
       -0.02347629 -0.028647054 0.014397187 -0.012456139
0003d0 3f 4e 01 3d 53 dd 97 ba d7 b7 f9 3c ca 2f 1b bd
       0.031568762 -0.0011586345 0.03048317 -0.037887372
0003e0 e6 85 54 bd 22 5f 82 bd fa fc a2 bd cd f8 9f bc
       -0.051885508 -0.063658014 -0.07958408 -0.019527817
0003f0 af bb 92 3d 22 21 4d 3d ac ff fe bd 06 12 ea 3d
       0.07164704 0.050080426 -0.12451109 0.11429219
